…
L RESTREPO OROZCO","userId":"16690580604606900690"},"user_tz":300},"id":"cBWuW4OdTsi4","outputId":"e5007019-77ff-4aea-c6fb-56cb70328470"},"outputs":[{"output_type":"stream","name":"stdout","text":["Model: \"model_1\"\n","_________________________________________________________________\n"," Layer (type)                Output Shape              Param #   \n","=================================================================\n"," input_2 (InputLayer)        [(None, 128, 128, 1)]     0         \n","                                                                 \n"," conv2d_1 (Conv2D)           (None, 128, 128, 32)      320       \n","                                                                 \n"," max_pooling2d (MaxPooling2  (None, 64, 64, 32)        0         \n"," D)                                                              \n","                                                                 \n"," conv2d_2 (Conv2D)           (None, 64, 64, 64)        18496     \n","                                                                 \n"," max_pooling2d_1 (MaxPoolin  (None, 32, 32, 64)        0         \n"," g2D)                                                            \n","                                                                 \n"," conv2d_3 (Conv2D)           (None, 32, 32, 128)       73856     \n","                                                                 \n"," max_pooling2d_2 (MaxPoolin  (None, 16, 16, 128)       0         \n"," g2D)                                                            \n","                                                                 \n"," conv2d_4 (Conv2D)           (None, 16, 16, 256)       295168    \n","                                                                 \n"," max_pooling2d_3 (MaxPoolin  (None, 8, 8, 256)         0         \n"," g2D)                                                            \n","                                                                 \n"," global_average_pooling2d_1  (None, 256)               0         \n","  (GlobalAveragePooling2D)                                       \n","                                                                 \n"," dense_3 (Dense)             (None, 512)               131584    \n","                                                                 \n"," dropout_1 (Dropout)         (None, 512)               0         \n","                                                                 \n"," dense_4 (Dense)             (None, 1)                 513       \n","                                                                 \n","=================================================================\n","Total params: 519937 (1.98 MB)\n","Trainable params: 519937 (1.98 MB)\n","Non-trainable params: 0 (0.00 Byte)\n","_________________________________________________________________\n"]}],"source":["bbmodel.summary()"]},{"cell_type":"code","execution
…
